model_BCEWithLogitsloss.ckpt (torch_old, 7986 bytes, 3 tensors)

fc1.weight f4 [128, 12]
-0.24891412 0.22976558 -0.2412621 -0.2147677 0.2371596 -0.27132943 -0.048336204 -0.22789957
0.23581377 0.17362793 0.07659894 -0.14347233 0.16852178 -0.22609015 -0.26550293 0.12596007
0.023380179 0.23740686 0.06271137 0.15765874 -0.17240684 -0.08580413 0.27030697 -0.21668102
0.120658495 -0.27555263 0.18583508 0.07035779 -0.14736196 0.061654888 -0.18598609 0.15980868
-0.09289916 0.23421666 -0.20260152 0.21831012 0.26885822 -0.043236513 0.034487102 0.035589874
0.07246341 -0.22261329 0.06325392 -0.25890052 0.14712931 0.26953998 0.06732107 -0.09811949
-0.14844865 -0.24171211 -0.27190277 -0.063334405 -0.1334353 -0.15304416 0.17467317 0.2049728
0.18877652 -0.23930156 0.2843386 0.0968622 0.22734995 0.26344845 -0.037831828 -0.04288144
-0.08936538 0.012311764 0.080573946 0.061672818 -0.19990313 0.08099274 0.15988737 0.07212418
0.1857799 0.18855564 0.022215901 0.1874372 0.049074948 -0.2340938 0.13483676 -0.11188985
0.010281035 0.28680483 0.20171054 -0.026601687 -0.24458997 -0.27230677 0.28774074 0.26006284
0.22812138 0.28165114 0.056494493 -0.04078456 0.06652586 0.2417111 -0.19404227 -0.21612129
-0.11743267 0.2201966 -0.2158874 -0.18855548 0.021722227 -0.06622614 0.14210147 0.040714353
-0.17463446 -0.24142393 0.015912145 -0.098612994 -0.11501036 0.08098914 -0.036539137 0.1997837
0.120650895 0.18724422 -0.20865904 -0.24335694 -0.097512946 -0.15530801 0.24218827 -0.0011569235
0.15383048 -0.21756123 0.02023992 -0.10168712 -0.026581528 -0.1600497 -0.24667557 -0.20149648
-0.11878239 0.05255165 0.07376381 -0.23996247 0.09301621 0.21618217 -0.22662462 -0.20896393
-0.03717673 -0.20560858 -0.042816177 0.16218707 0.018664658 -0.25004843 0.2463404 0.08527613
0.018497804 0.12645939 -0.051542003 0.06658174 0.12035903 -0.010536304 0.056511305 -0.0043889103
-0.19068234 -0.012529035 -0.27534902 -0.124011986 -0.007734545 0.17978701 -0.1624798 -0.27230418
0.28776798 -0.029552337 -0.014396897 -0.2528946 0.08031764 0.19969442 -0.086661614 -0.13984482
0.23315129 0.23919533 0.28787857 0.1567061 -0.17204909 0.1317043 0.20758261 0.14016102
-0.057638884 -0.016714292 0.13763624 -0.1944868 -0.15739302 -0.21058378 -0.1463333 0.2486924
0.14114365 0.11784813 -0.25390586 0.08075256 -0.0891043 -0.1340036 0.27247927 -0.10253332
-0.15129967 0.26177955 0.03479898 -0.19247556 -0.08557874 0.26083383 -0.036659 0.06878536
0.23765323 0.09755005 -0.30038354 0.1890488 -0.20421639 -0.25088102 -0.26819757 -0.106126115
-0.08468005 0.11992642 0.2106328 0.2706716 0.11577046 -0.2839058 0.033176273 -0.14785944
0.20519152 0.0021488895 -0.2518543 0.15840301 0.050264135 0.02400302 -0.19055161 -0.22068495
-0.25992244 -0.052369032 -0.040769756 -0.13046125 -0.111400455 -0.10021952 0.2365799 -0.085299104
-0.14554997 -0.07341714 0.045613676 0.2796427 -0.24619578 -0.12042716 0.22387278 -0.24147284
-0.17704369 -0.23465388 -0.16789407 0.110082865 0.015979022 -0.20147806 0.07026127 0.13779739
0.11227378 -0.17843074 -0.20902877 0.16684833 -0.09369887 -0.27307364 0.06251808 -0.030891825
00000000: 58e3 7ebe ab47 6b3e 690d 77be 10ec 5bbe
00000010: f7d9 723e b1eb 8abe 2ffc 45bd 815e 69be
00000020: 2a79 713e 85cb 313e e8df 9c3d 69ea 12be
00000030: f990 2c3e 2d84 67be 00f0 87be adfb 003e
00000040: ca87 bf3c c91a 733e d26e 803d 4b71 213e
00000050: 6b8b 30be 13ba afbd ad65 8a3e a1e1 5dbe
00000060: cd1b f73d 3c15 8dbe 8d4b 3e3e bf17 903d
00000070: 0ee6 16be d689 7c3d 2373 3ebe e3a4 233e
00000080: ea41 bebd 7ed6 6f3e c676 4fbe b08c 5f3e
00000090: c9a7 893e c518 31bd 5942 0d3d b0c6 113d
000000a0: b267 943d bdf4 63be 458b 813d 9c8e 84be
000000b0: 11a9 163e 2501 8a3e a1df 893d dff2 c8bd
000000c0: ec02 18be 6183 77be d736 8bbe 78b5 81bd
000000d0: 43a3 08be 9cb7 1cbe 86dd 323e 64e4 513e
000000e0: a24e 413e 780b 75be d494 913e b05f c63d
000000f0: 6dce 683e b7e2 863e 8cf5 1abd 73a4 2fbd
00000100: 3205 b7bd 48b7 493c f403 a53d a39c 7c3d
00000110: 68b3 4cbe 86df a53d 84b9 233e d8b5 933d
00000120: 163d 3e3e bb14 413e 1ffe b53c 8aef 3f3e
00000130: d002 493d 49b6 6fbe a612 0a3e 8126 e5bd
00000140: c971 283c 15d8 923e 358d 4e3e c8eb d9bc
00000150: cb75 7abe cb6b 8bbe c152 933e f526 853e
00000160: a798 693e 9434 903e c566 673d b60d 27bd
00000170: b63e 883d 1d83 773e 04b3 46be e64e 5dbe
00000180: 8a80 f0bd 387b 613e 9611 5dbe b014 41be
00000190: d0f2 b13c 92a1 87bd 0c83 113e 18c4 263d
000001a0: 60d3 32be d637 77be 305a 823c 9cf5 c9bd
000001b0: 8d8a ebbd a2dd a53d 10aa 15bd 1994 4c3e
000001c0: d117 f73d f3bc 3f3e b7aa 55be 9032 79be
000001d0: deb4 c7bd 1009 1fbe 3400 783e e9a3 97ba
000001e0: bd85 1d3e 5fc8 5ebe 30ce a53c 5641 d0bd
000001f0: 81c1 d9bc 12e4 23be 8598 7cbe 1855 4ebe
00000200: 2f44 f3bd 6640 573d 7b11 973d b9b8 75be
00000210: 487f be3d dc5e 5d3e 4910 68be a4fa 55be
00000220: a046 18bd 0e8b 52be 0460 2fbd 5e14 263e
00000230: a0e6 983c 5906 80be a840 7c3e 40a5 ae3d
00000240: b588 973c 927e 013e b51d 53bd 025c 883d
00000250: cc7e f63d 76a0 2cbc 6678 673d d9d0 8fbb
00000260: 3b42 43be 9546 4dbc 8cfa 8cbe fff9 fdbd
00000270: 1172 fdbb 161a 383e 1b61 26be 746b 8bbe
00000280: 5356 933e be17 f2bc f6e0 6bbc 677b 81be
00000290: 937d a43d b27c 4c3e a57b b1bd 7b33 0fbe
000002a0: 36bf 6e3e 9fef 743e d264 933e 9077 203e
000002b0: a32d 30be 7edd 063e 8990 543e 5f86 0f3e
000002c0: c016 6cbd 69ec 88bc 84f0 0c3e 8c27 47be
000002d0: a32b 21be 46a3 57be 66d8 15be 38a9 7e3e
000002e0: f687 103e 5c5a f13d f3ff 81be 9961 a53d
000002f0: 517c b6bd 3d38 09be 6782 8b3e fdfc d1bd
00000300: 4dee 1abe f807 863e 6089 0e3d 5018 45be
00000310: e843 afbd 038c 853e bf27 16bd 57df 8c3d
00000320: 5e5b 733e 52c8 c73d dfcb 99be 0296 413e
00000330: 1a1e 51be 7a73 80be 3151 89be a658 d9bd
00000340: bc6c adbd fc9b f53d 20b0 573e 7895 8a3e
00000350: 1019 ed3d 1a5c 91be d8e3 073d 7768 17be
00000360: ba1d 523e 62d4 0c3b 0cf3 80be 6634 223e
00000370: c4e1 4d3d fba1 c43c f61f 43be 3cfb 61be
00000380: 8e14 85be e980 56bd 30fe 26bd a297 05be
00000390: ec25 e4bd e43f cdbd 0042 723e 4cb1 aebd
000003a0: 0d0b 15be ba5b 96bd 68d5 3a3d 542d 8f3e
000003b0: bf1a 7cbe 84a2 f6bd e83e 653e a844 77be
000003c0: f14a 35be 1b49 70be 6cec 2bbe 2073 e13d
000003d0: 70e6 823c 4450 4ebe 24e5 8f3d c21a 0d3e
000003e0: ccef e53d 8cb6 36be a30b 56be 4ada 2a3e
000003f0: 31e5 bfbd 4fd0 8bbe 7b09 803d da10 fdbc

fc1.bias f4 [128]
0.05704981 -0.11765612 0.23311871 -0.15292734 -0.13675998 -0.25307694 0.2093381 0.119104676
-0.011634916 0.17228028 -0.23494157 -0.2473598 -0.050854124 0.02751653 -0.18588974 0.114603296
-0.17801134 -0.07987738 0.17678408 -0.27809188 -0.0864273 0.21898438 0.012236561 -0.16724591
-0.21679269 -0.20876245 0.21567512 -0.24633794 -0.22418824 -0.07197859 0.065728635 -0.05938423
0.21489608 -0.17739902 0.17089957 -0.092304744 -0.0071135163 0.0418642 0.18709809 -0.05751579
0.16506717 -0.19957066 0.22193779 0.20581038 0.19059612 -0.2267927 -0.018862154 0.040841553
-0.06848575 -0.09121448 -0.053787306 -0.2472887 -0.17817077 -0.07189785 0.065030664 0.13675997
-0.15382937 0.23427702 0.00030450837 0.17687868 0.26302662 0.20280659 0.2143473 -0.2614806
-0.07956381 0.068762794 0.14221048 0.043310095 0.10098606 0.056944598 0.107647456 0.27253923
0.24634898 0.2627036 -0.10002574 0.18921319 -0.05311339 0.18404904 0.0456084 -0.2203393
0.18845189 -0.2732202 0.27999017 -0.26181644 0.26506928 -0.24750896 0.17219177 -0.010613877
-0.16200364 0.12150425 0.023600752 0.032851636 0.22067547 0.06505839 0.103586175 0.17008111
0.04557962 0.17656383 -0.2252407 -0.17033659 0.17763796 0.06387472 0.26990575 -0.28263298
-0.2747965 0.15122056 0.0014171673 -0.09430156 0.054346085 0.18537518 -0.2543902 0.073331326
-0.03945244 0.272208 0.043914407 0.15136546 -0.2020571 -0.09803122 0.23314981 0.12070808
0.06682885 0.05614313 0.16092746 -0.08823996 0.033585995 0.2158708 -0.26882255 0.11457789
00000000: 10ad 693d b1f5 f0bd acb6 6e3e fc98 1cbe
00000010: cf0a 0cbe 4d93 81be ba5c 563e 27ed f33d
00000020: 60a0 3ebc 3e6a 303e 8694 70be e34b 7dbe
00000030: 6a4c 50bd 596a e13c e159 3ebe 22b5 ea3d
00000040: 9b48 36be c096 a3bd e306 353e 0f62 8ebe
00000050: cc00 b1bd 713d 603e db7b 483c 8342 2bbe
00000060: e7fe 5dbe d3c5 55be f0d9 5c3e 0340 7cbe
00000070: 9a91 65be 8369 93bd bc9c 863d e13c 73bd
00000080: b80d 5c3e 17a8 35be 4c00 2f3e 450a bdbd
00000090: 8018 e9bb cc79 2b3d a496 3f3e ad95 6bbd
000000a0: 5e07 293e 405c 4cbe a943 633e f5bf 523e
000000b0: a12b 433e 583c 68be ce84 9abc 7949 273d
000000c0: 4242 8cbd a8ce babd 1450 5cbd 4039 7dbe
000000d0: 6672 36be 2e3f 93bd cc2e 853d ce0a 0c3e
000000e0: 7285 1dbe 51e6 6f3e 6ca6 9f39 af1f 353e
000000f0: 6dab 863e 88ac 4f3e dc7d 5b3e c9e0 85be
00000100: 5af2 a2bd 82d3 8c3d a09f 113e ed65 313d
00000110: c8d1 ce3d bd3e 693d 4576 dc3d 438a 8b3e
00000120: e842 7c3e 1681 863e 4cda ccbd 1ac1 413e
00000130: 6d8d 59bd 5a77 3c3e e0cf 3a3d a0a0 61be
00000140: 88f9 403e 85e3 8bbe df5a 8f3e ce0c 86be
00000150: 29b7 873e fd72 7dbe 0a53 303e d4e5 2dbc
00000160: 48e4 25be 38d7 f83d 5d56 c13c 708f 063d
00000170: c0f8 613e 553d 853d fd24 d43d be29 2e3e
00000180: b2b1 3a3d 26cd 343e 80a5 66be b76c 2ebe
00000190: bae6 353e c0d0 823d 1631 8a3e 45b5 90be
000001a0: 20b2 8cbe 90d9 1a3e 3ec0 b93a 2d21 c1bd
000001b0: 009a 5e3d fed2 3d3e 6f3f 82be bc2e 963d
000001c0: e298 21bd d95e 8b3e 98df 333d 8cff 1a3e
000001d0: 0ee8 4ebe 98c4 c8bd d3be 6e3e cc35 f73d
000001e0: 90dd 883d 57f6 653d 2bca 243e 27b7 b4bd
000001f0: 7891 093d 3c0d 5d3e 1ca3 89be d0a7 ea3d

fc2.weight f4 [1, 128]
0.06370562 -0.033234272 0.0066453046 -0.0110653695 0.03533952 -0.055539366 -0.07211641 0.011340248
-0.033042118 0.06543007 -0.004194278 -0.030076265 -0.08133965 -0.059300896 0.06611714 0.024683952
0.034776703 0.057503827 0.07999961 -0.08027956 0.0029005557 0.0044876705 0.05535444 -0.038951114
-0.07614511 -0.048286617 -0.056341033 -0.025461322 -0.035259917 0.015244066 0.030622087 -0.06273906
-0.071128495 0.05531177 0.07948386 -0.07924239 0.0014670864 -0.08700169 0.045190386 0.07078985
0.0519095 -0.031104034 0.070182025 -0.021031065 -0.08439486 -0.0038272592 0.059288807 0.037871372
-0.036220107 0.059624337 -0.05519336 -0.0040970556 -0.036093406 -0.06529057 -0.00722397 -0.027085423
-0.015678756 -0.057794195 0.027376996 0.06725138 -0.017490432 -0.01740619 -0.0060152635 0.07225037
0.008385688 -0.013774758 0.03255617 -0.039547075 -0.024456717 0.07527815 -0.03321795 -0.01397745
0.014226445 -0.048717096 0.040394 -0.08315939 0.06816288 0.06086413 -0.06590498 -0.03797469
-0.024835667 -0.099162936 -0.03959286 0.0064165522 0.03820121 0.09033067 -0.079770975 0.0067521743
-0.019013958 -0.06244399 -0.023788253 -0.010931753 -0.022694886 -0.055426475 -0.031651564 -0.054262985
0.030325832 -0.0055269618 -0.064290166 -0.07760769 0.05786907 -0.05879744 0.056848086 0.07989215
0.06831097 -0.007964905 -0.00021650677 0.067364596 0.027166434 0.08491572 -0.03234033 0.063371174
0.080428615 0.044926513 -0.054537073 0.0029684932 0.067802876 0.012824626 0.048424747 -0.052666143
0.01722653 0.022326954 -0.058012005 -0.061278157 0.07908376 0.03628435 0.014206105 -0.07394657
00000000: 1878 823d a920 08bd dbc0 d93b 864b 35bc
00000010: 2cc0 103d 3f7d 63bd c5b1 93bd 73cc 393c
00000020: 2c57 07bd 3300 863d 2770 89bb 8062 f6bc
00000030: 6795 a6bd 7fe5 72bd 6c68 873d 0036 ca3c
00000040: 0472 0e3d 2289 6b3d d6d6 a33d 9c69 a4bd
00000050: 4017 3e3b 4f0d 933b 56bb 623d 348b 1fbd
00000060: f8f1 9bbd 30c8 45bd dbc5 66bd 4394 d0bc
00000070: b46c 10bd 3fc2 793c 2cdb fa3c 567d 80bd
00000080: d1ab 91bd 988e 623d 6fc8 a23d d649 a2bd
00000090: 404b c03a f12d b2bd 8e19 393d 45fa 903d
000000a0: 0e9f 543d e3cd febc 98bb 8f3d 5749 acbc
000000b0: 36d7 acbd c1d2 7abb d2d8 723d 031f 1b3d
000000c0: 895b 14bd a638 743d 6f12 62bd 9840 86bb
000000d0: aed6 13bd 10b7 85bd 0db7 ecbb 40e2 ddbc
000000e0: bc70 80bc 9bb9 6cbd b945 e03c 17bb 893d
000000f0: 1848 8fbc 6d97 8ebc b01b c5bb 01f8 933d
00000100: 2064 093c 86af 61bc 9e59 053d 1dfc 21bd
00000110: 7459 c8bc 6e2b 9a3d 8c0f 08bd ad01 65bc
00000120: 0916 693c 948b 47bd 2e74 253d 784f aabd
00000130: fb98 8b3d aa4c 793d 31f9 86bd 598b 1bbd
00000140: 2b74 cbbc f015 cbbd 1f2c 22bd f141 d23b
00000150: df78 1c3d 49ff b83d f75e a3bd 5841 dd3b
00000160: 29c3 9bbc 45c5 7fbd 95df c2bc 181b 33bc
00000170: a0ea b9bc df06 63bd 12a5 01bd dd42 5ebd
00000180: e16d f83c 841b b5bb 90aa 83bd c8f0 9ebd
00000190: 1e08 6d3d 96d5 70bd 8ad9 683d 7f9e a33d
000001a0: 9fe6 8b3d 3c7f 02bc 1806 63b9 73f6 893d
000001b0: 248c de3c 4be8 ad3d 4b77 04bd bfc8 813d
000001c0: c2b7 a43d dd04 383d 4462 5fbd 0d8b 423b
000001d0: 3cdc 8a3d 611e 523c 0759 463d 74b8 57bd
000001e0: a71e 8d3c 04e7 b63c ff9d 6dbd cefe 7abd
000001f0: abf6 a13d e69e 143d b9c0 683c 4d71 97bd
