model_BCEWithLogitsloss.ckpt (torch_old, 7986 bytes, 3 tensors)

fc1.weight f4 [128, 12]
0.094327606 0.05075049 -0.05720182 0.04154142 0.211675 0.12052056 -0.22045816 0.038178694
0.19481082 0.24020794 -0.075372495 -0.27685818 -0.14262728 -0.14021659 -0.02550514 0.03817882
0.002017014 0.24275213 -0.017191969 0.13011672 0.040996138 0.10623377 0.12501068 -0.24774861
0.10790821 0.15094368 -0.28256467 -0.16147949 0.1904308 0.052212063 0.029505117 -0.12051638
-0.05093635 0.034382313 -0.059917744 0.251574 -0.12015101 -0.21573526 0.25594693 0.14806643
-0.190167 -0.14459725 0.17911899 -0.10951348 0.2604751 -0.22201267 -0.18137285 -0.27467686
-0.22828865 -0.17034824 0.26450288 0.2831509 -0.1859516 -0.26593965 -0.10263343 -0.05611269
-0.14894292 -0.1829645 0.14088288 -0.08562565 -0.16140236 0.06380107 -0.20841539 0.20229669
0.20065752 -0.21271683 -0.2788315 -0.041435815 -0.13513091 -0.1080595 0.19758172 -0.08185079
0.116784945 -0.0636745 -0.11498098 0.27792966 0.09484726 0.15573286 0.15412664 0.17289644
-0.23734383 -0.17688292 -0.20878841 0.20952362 -0.062177412 -0.055221707 0.05673034 0.027482964
0.2584685 -0.05894033 -0.28764635 -0.24435547 -0.13165489 0.15942653 -0.13753368 -0.09948157
0.06964722 -0.052970074 0.07568597 -0.047980055 -0.27945444 0.12206406 0.2721225 0.23725273
0.018592391 0.09184944 0.1519473 0.26253006 -0.067870304 -0.15575525 0.10196258 0.050357424
0.014936445 0.059781104 -0.1597083 -0.08899553 -0.003181789 0.22766107 -0.15494992 0.18989243
0.21141773 0.054803967 -0.18922791 0.2495594 -0.18259422 0.25781304 0.23001015 -0.1488009
-0.24854508 -0.11813706 0.0014315844 0.07720825 -0.27327216 0.107702814 -0.18566197 0.104315154
0.16017646 0.054871958 -0.031409696 0.075945035 -0.008806273 0.14058472 -0.2432208 0.074072786
0.19725116 0.2452141 -0.018202288 -0.20868073 0.03297928 -0.199801 -0.27978307 -0.0095998375
-0.008498576 0.20582132 0.037560493 -0.13027342 -0.1881964 0.21683763 -0.15645489 -0.25496313
0.1049429 0.0907391 -0.07210055 0.267554 -0.20307964 -0.03002574 0.21726488 -0.11386264
-0.1052763 0.10773141 0.061536133 0.06718942 -0.13699833 0.009187354 0.18269527 0.2078448
-0.2277667 0.25982624 0.27912897 -0.13424978 0.23780282 -0.14661305 -0.0052487636 0.15722772
-0.20697509 0.22534066 0.0075658713 0.033925906 -0.15094393 0.24213693 0.046818286 0.09873866
0.23371986 -0.05304665 0.032218166 0.16653982 -0.010909086 -0.10174294 -0.12829553 0.17652598
0.2395677 0.27646282 0.20544034 -0.25483876 0.018851068 -0.13230407 -0.25123593 0.1525055
0.15982233 0.16227816 0.21788988 0.13178092 0.20052773 -0.24918023 -0.0039769984 -0.13542613
0.24977753 -0.01538544 -0.23421328 0.19442248 -0.099457964 0.013667791 0.052839633 -0.035563007
0.056305524 0.15851678 0.022347875 -0.04188707 -0.21993276 -0.21055356 0.21391469 -0.15480964
-0.14434695 0.22162998 0.23807108 0.049260616 0.09923193 -0.26875553 -0.2212404 -0.06537354
-0.17371511 -0.18130904 0.16743371 0.2454189 -0.23410115 0.13954982 0.20466661 -0.08671571
0.06537297 -0.287584 0.19227728 0.06681153 -0.04145731 0.099379644 0.20103827 -0.20594262
00000000: d52e c13d bfdf 4f3d 754c 6abd 5627 2a3d
00000010: 55c1 583e 7cd3 f63d c9bf 61be 4361 1c3d
00000020: 7d7c 473e 12f9 753e e55c 9abd 5bc0 8dbe
00000030: e30c 12be f094 0fbe 28f0 d0bc 6561 1c3d
00000040: e12f 043b 0494 783e 2cd6 8cbc 513d 053e
00000050: 91eb 273d 1791 d93d cd02 003e d0b1 7dbe
00000060: fbfe dc3d fb90 1a3e 51ac 90be e15a 25be
00000070: 4b00 433e 51dc 553d b7b4 f13c 4bd1 f6bd
00000080: a2a2 50bd 78d4 0c3d 4f6c 75bd 4fce 803e
00000090: bc11 f6bd b4e9 5cbe 7a0b 833e ba9e 173e
000000a0: 23bb 42be 4d11 14be f86a 373e 9a48 e0bd
000000b0: fe5c 853e 4a57 63be ceb9 39be 72a2 8cbe
000000c0: 80c4 69be c56f 2ebe ec6c 873e 28f9 903e
000000d0: 196a 3ebe 3e29 88be 7a31 d2bd 6cd6 65bd
000000e0: 7e84 18be 0c5b 3bbe 9a43 103e 805c afbd
000000f0: a946 25be 23aa 823d d86a 55be dd26 4f3e
00000100: 2a79 4d3e 71d2 59be 01c3 8ebe 9ab8 29bd
00000110: c25f 0abe 4d4e ddbd dd52 4a3e 63a1 a7bd
00000120: f22c ef3d c767 82bd 267b ebbd cc4c 8e3e
00000130: 483f c23d 6f78 1f3e 60d3 1d3e c40b 313e
00000140: 430a 73be cc20 35be a1cc 55be 5c8d 563e
00000150: bead 7ebd 2830 62bd 135e 683d f423 e13c
00000160: fc55 843e 6a6b 71bd 6246 93be 5238 7abe
00000170: 8ad0 06be b540 233e a1d5 0cbe febc cbbd
00000180: 34a3 8e3d 26f7 58bd 3f01 9b3d bc86 44bd
00000190: a714 8fbe b9fc f93d a453 8b3e 61f2 723e
000001a0: 124f 983c 8f1b bc3d 1398 1b3e 576a 863e
000001b0: 96ff 8abd 4e7e 1fbe c2d1 d03d 9643 4e3d
000001c0: feb7 743c 08dd 743d 938a 23be 4a43 b6bd
000001d0: 9085 50bb fc1f 693e 31ab 1ebe 2973 423e
000001e0: e47d 583e 207a 603d f6c4 41be 808c 7f3e
000001f0: fbf9 3abe 1200 843e c887 6b3e 435f 18be
00000200: 9a82 7ebe d8f1 f1bd 00a4 bb3a 5c1f 9e3d
00000210: 54ea 8bbe 4b93 dc3d 2c1e 3ebe 2fa3 d53d
00000220: 4c05 243e 6bc1 603d 74a7 00bd 1289 9b3d
00000230: 3048 10bc 71f5 0f3e e00e 79be 79b3 973d
00000240: 35fc 493e 6819 7b3e f71c 95bc 67b0 55be
00000250: 4815 073d a298 4cbe ba3f 8fbe a348 1dbc
00000260: 9c3d 0bbc d3c2 523e 08d9 193d 6566 05be
00000270: 8fb6 40be af0a 5e3e b635 20be 878a 82be
00000280: 4eec d63d 6cd5 b93d 74a9 93bd d6fc 883e
00000290: 1cf4 4fbe 8af8 f5bc af7a 5e3e d130 e9bd
000002a0: 1a9b d7bd 49a2 dc3d 500d 7c3d 9b9a 893d
000002b0: 4a49 0cbe 8e86 163c 7814 3b3e 44d5 543e
000002c0: ac3b 69be f207 853e fee9 8e3e c678 09be
000002d0: 9582 733e bb21 16be d2fd abbb 4e00 213e
000002e0: 47f1 53be b4bf 663e 21eb f73b e4f5 0a3d
000002f0: 0c91 1abe bef2 773e 88c4 3f3d 7f37 ca3d
00000300: 4254 6f3e 7247 59bd 32f7 033d 6a89 2a3e
00000310: 06bc 32bc 9a5e d0bd e75f 03be 3ac3 343e
00000320: 3c51 753e 898c 8d3e f45e 523e 3a7a 82be
00000330: 8e6d 9a3c b87a 07be ffa1 80be 672a 1c3e
00000340: 77a8 233e 3f2c 263e 861e 5f3e 94f1 063e
00000350: 2457 4d3e 1a29 7fbe 7b51 82bb 26ad 0abe
00000360: aec5 7f3e 3613 7cbc 9bd5 6fbe b016 473e
00000370: 9eb0 cbbd dfee 5f3c 5f6e 583d 84aa 11bd
00000380: 9fa0 663d 3952 223e e412 b73c c791 2bbd
00000390: 0e36 61be 5a9b 57be 740c 5b3e 6b86 1ebe
000003a0: b0cf 13be f8f2 623e e8c8 733e 80c5 493d
000003b0: 1c3a cb3d 539a 89be d88c 62be 90e2 85bd
000003c0: 60e2 31be 14a9 39be be73 2b3e 184f 7b3e
000003d0: 36b8 6fbe 26e6 0e3e 2094 513e 0298 b1bd
000003e0: 44e2 853d 363e 93be 56e4 443e 7cd4 883d
000003f0: 24cf 29bd 8e87 cb3d fadc 4d3e 9fe2 52be

fc1.bias f4 [128]
-0.16423371 0.11792049 -0.24124919 -0.017521739 0.14901534 -0.202107 0.19017807 -0.19539015
-0.007512044 -0.15089244 -0.021090537 0.012819428 -0.085667424 0.06959589 -0.19385412 0.16411938
-0.100880735 0.14529397 -0.0057102134 -0.26361114 -0.28176907 0.1847762 -0.244158 -0.014954036
-0.10498982 0.25685441 0.03200212 0.2519101 -0.1366911 0.16765234 -0.044340983 -0.22882846
0.065212965 -0.14098383 0.25114262 0.13450691 0.15968093 0.19066149 0.24954087 0.13179934
-0.26258874 0.040088672 -0.12744057 0.09715704 -0.074862264 -0.2593055 -0.07602251 0.17181143
-0.013598454 -0.1839111 -0.09206978 -0.009262843 -0.023074985 -0.065467864 -0.16943426 0.07005277
0.10953095 -0.2152473 0.2166089 0.24748988 0.25119212 -0.273727 -0.26591438 -0.10136618
0.23505507 0.08619541 0.108396694 0.033841155 0.1784109 -0.17616287 -0.20110068 0.20531277
0.16811958 -0.06481601 0.012423456 0.05854482 -0.19053134 -0.027899891 0.28019097 -0.24795946
0.091488294 -0.119617544 0.16991508 0.08120111 -0.28552896 0.20661357 -0.05495638 -0.13129875
0.05143181 -0.055915926 0.2004791 -0.11193065 -0.14916739 0.0005951217 -0.06438018 0.10863917
0.24901266 -0.047489498 0.045072038 0.2652989 -0.21053275 -0.28104645 -0.18188694 -0.10933624
-0.2045749 -0.080001235 0.14665782 0.18562382 -0.28194436 -0.0605624 0.02955891 -0.012772292
-0.15610376 -0.12098138 0.211002 -0.060113307 0.07963761 0.21684273 0.07340348 -0.23797366
-0.1489743 -0.0989362 -0.16466662 -0.095771424 0.22698355 0.1955673 -0.27731383 0.26303196
00000000: e22c 28be 4c80 f13d 070a 77be c089 8fbc
00000010: 7a97 183e 23f5 4ebe 0abe 423e 5b14 48be
00000020: 9827 f6bb 8c83 1abe 10c6 acbc 9408 523c
00000030: 6772 afbd 4a88 8e3d b281 46be e90e 283e
00000040: 8f9a cebd f1c7 143e be1c bbbb 0af8 86be
00000050: 0944 90be f935 3d3e 8e04 7abe c601 75bc
00000060: e704 d7bd 6c82 833e a814 033d 5cfa 803e
00000070: c0f8 0bbe 0ead 2b3e e49e 35bd 0252 6abe
00000080: 608e 853d 115e 10be c495 803e 2ebc 093e
00000090: 6683 233e c43c 433e a487 7f3e 68f6 063e
000000a0: 0872 86be 0534 243d c87f 02be 45fa c63d
000000b0: 6351 99bd b1c3 84be b1b1 9bbd 56ef 2f3e
000000c0: 0dcc 5ebc 3153 3cbe 158f bcbd 2ec3 17bc
000000d0: c007 bdbc 0414 86bd 2d80 2dbe d477 8f3d
000000e0: c351 e03d ca69 5cbe b9ce 5d3e fd6d 7d3e
000000f0: 419c 803e f225 8cbe ee25 88be 1299 cfbd
00000100: 47b2 703e 3887 b03d 16ff dd3d 069d 0a3d
00000110: 59b1 363e 0a64 34be 56ed 4dbe 833d 523e
00000120: 8a27 2c3e 42be 84bd c08b 4b3c b1cc 6f3d
00000130: a61a 43be 508e e4bc 3175 8f3e 16e9 7dbe
00000140: 375e bb3d 0bfa f4bd 38fe 2d3e c44c a63d
00000150: da30 92be 8292 533e f119 61bd 2e73 06be
00000160: 29aa 523d 1908 65bd 654a 4d3e e63b e5bd
00000170: 56bf 18be f101 1c3a c1d9 83bd 377e de3d
00000180: 2dfd 7e3e 5984 42bd 759d 383d 42d5 873e
00000190: e695 57be 52e5 8fbe 9240 3abe aeeb dfbd
000001a0: 157c 51be b0d7 a3bd 782d 163e 2c14 3e3e
000001b0: 035b 90be 4710 78bd 8725 f23c e042 51bc
000001c0: aad9 1fbe 16c5 f7bd e910 583e 5f39 76bd
000001d0: 0b19 a33d 050c 5e3e 9054 963d 5eaf 73be
000001e0: b88c 18be 109f cabd 5e9e 28be cf23 c4bd
000001f0: 606e 683e cb42 483e 14fc 8dbe 20ac 863e

fc2.weight f4 [1, 128]
-0.08029306 0.0024755043 0.045191552 -0.05137779 0.037519015 -0.026342554 -0.07511222 -0.055739716
0.020465776 -0.058178242 -0.066687755 -0.07170185 0.067882225 0.061136115 0.040760107 0.07567274
-0.025723225 0.018216044 -0.06263064 -0.042754352 -0.038223155 0.039401412 0.02561947 0.0040999968
-0.07244731 -0.06321181 -0.07821419 0.030761674 0.07803637 0.05449813 -0.07516115 0.017967416
0.023550585 -0.004781109 -0.08006259 0.03451803 -0.06762893 -0.08154091 0.002662152 0.015815895
-0.018908782 -0.029357022 0.012279058 0.003543536 -0.06455678 0.017494805 0.08009346 0.017352074
0.011527021 0.05614806 -0.03092228 0.06448131 0.05346427 -0.009765275 0.0782554 0.003076844
-0.014486588 -0.034044825 0.07540119 0.08972988 -0.07730772 -0.01010705 0.041567005 -0.050637435
0.024383267 -0.05965957 0.07706801 0.018062947 -0.031795856 -0.0062863138 0.07088734 -0.063916415
0.017998843 -0.018083446 0.068657205 0.070682034 0.09088009 0.078625314 0.012108216 -0.016760489
0.0098366635 -0.014528219 0.06507291 0.061795317 0.0028797998 -0.054863952 -0.04454299 0.025998551
-0.026627444 0.042229563 0.07699953 -0.07270104 -0.0260357 0.06999709 0.066201106 -0.060485214
0.021329628 -0.012629593 -0.064147696 0.02669026 0.07273602 0.0037731305 -0.06398146 0.051390238
-0.042452738 -0.020202274 0.07913289 -0.08822018 -0.00032163732 -0.023190498 0.08936935 -0.012643874
0.06942358 -0.06052573 0.084929824 -0.015397134 -0.056470904 0.06525796 -0.05989001 -0.08525346
0.047417447 0.0138112055 0.022943871 0.045673292 -0.044463508 0.088514514 -0.09497077 -0.02181348
00000000: b070 a4bd 123c 223b c71a 393d 8471 52bd
00000010: 8aad 193d 57cc d7bc 70d4 99bd 544f 64bd
00000020: d8a7 a73c 4f4c 6ebd 9793 88bd 6bd8 92bd
00000030: d605 8b3d dd69 7a3d 12f4 263d 4ffa 9a3d
00000040: 83b9 d2bc d039 953c 7e44 80bd 301f 2fbd
00000050: e28f 1cbd 6063 213d ecdf d13c 4459 863b
00000060: 415f 94bd 3275 81bd c32e a0bd e8ff fb3c
00000070: 88d1 9f3d 6e39 5f3d 17ee 99bd 6730 933c
00000080: 28ed c03c d9aa 9cbb dbf7 a3bd c762 0d3d
00000090: 0981 8abd ecfe a6bd 8077 2e3b 5690 813c
000000a0: 97e6 9abc 237e f0bc 1a2e 493c ab3a 683b
000000b0: 5836 84bd 4451 8f3c 0a08 a43d f025 8e3c
000000c0: d5db 3c3c 82fb 653d b950 fdbc c70e 843d
000000d0: 5afd 5a3d 88fe 1fbc 5e44 a03d e0a4 493b
000000e0: 2759 6dbc 9672 0bbd f06b 9a3d 4dc4 b73d
000000f0: 8353 9ebd 0a98 25bc 2a42 2a3d 3369 4fbd
00000100: 6bbf c73c 985d 74bd d5d5 9d3d bff8 933c
00000110: 5f3c 02bd 6cfd cdbb 622d 913d 9ce6 82bd
00000120: 4f72 933c bc23 94bc 269c 8c3d bec1 903d
00000130: 571f ba3d 4f06 a13d 8a61 463c 4b4d 89bc
00000140: f529 213c c407 6ebc f244 853d 161d 7d3d
00000150: 06bb 3c3b 06b9 60bd b672 36bd eafa d43c
00000160: cc21 dabc e8f8 2c3d eeb1 9d3d 48e4 94bd
00000170: d248 d5bc a25a 8f3d 7294 873d 58bf 77bd
00000180: 79bb ae3c 5aec 4ebc de5f 83bd 88a5 da3c
00000190: 9ff6 943d a046 773b b608 83bd 927e 523d
000001a0: ece2 2dbd 3d7f a5bc 6d10 a23d c8ac b4bd
000001b0: 6ea1 a8b9 00fa bdbc 4707 b73d 4028 4fbc
000001c0: f32d 8e3d d4e9 77bd b0ef ad3d 4344 7cbc
000001d0: 094e 67bd f7a5 853d 3a4f 75bd 5e99 aebd
000001e0: cc38 423d 6548 623c c9f4 bb3c eb13 3b3d
000001f0: 5e1f 36bd 1947 b53d 0980 c2bd 2fb2 b2bc
