model_BCSLoss.ckpt (torch_old, 7986 bytes, 3 tensors)

fc1.weight f4 [128, 12]
0	0xbd7827c7	-0.06058481
1	0xbdb93d4a	-0.09044893
2	0xbe1d5b02	-0.15366748
3	0xbe9085cd	-0.28227082
4	0x3e325db2	0.17418554
5	0xbdd5afe1	-0.10433937
6	0xbe48fb18	-0.19627035
7	0xbe1926f8	-0.14956272
8	0xbe5aa081	-0.2135029
9	0x3e1afd47	0.1513568
10	0x3ce3b8a6	0.027798008
11	0xbe6e6892	-0.23282078
12	0x3dccf7ac	0.10008177
13	0xbdf03b50	-0.11730063
14	0x3e12e51e	0.14345214
15	0xbdc749f0	-0.09730899
16	0x3e657c00	0.22410583
17	0x3d2b5ff0	0.04183954
18	0xbe14e86b	-0.14541785
19	0x3e7e74cc	0.24849242
20	0xbe8ee5ad	-0.27909604
21	0x3e5e425c	0.21705002
22	0xbe052723	-0.1300321
23	0xbd869c36	-0.065727636
24	0xbe4865c2	-0.19570068
25	0xbe535f1a	-0.20641747
26	0x3d405699	0.046957586
27	0x3d8d7fe1	0.069091566
28	0xbddb8598	-0.1071884
29	0xbe5339ca	-0.20627514
30	0xbe110ff6	-0.14166245
31	0x3e052638	0.1300286
32	0xbe9355e5	-0.2877647
33	0xbe149493	-0.14509802
34	0x3e8bec36	0.27328652
35	0xbe4c210a	-0.19934478
36	0xbe84265d	-0.2581052
37	0xbe019afe	-0.12656781
38	0xbe34b528	-0.1764723
39	0xbe2c63bc	-0.1683492
40	0xbe871e16	-0.2639014
41	0xbe3cc5c7	-0.18434821
42	0x3e571594	0.21004325
43	0x3e5fc7e8	0.21853602
44	0xbdc846f6	-0.0977916
45	0xbe14d760	-0.14535284
46	0xbe6a9acc	-0.22910613
47	0xbe8b4422	-0.2720042
48	0x3e911cd4	0.28342307
49	0x3e8d02fe	0.27541345
50	0x3d705578	0.05867526
51	0x3d300eb8	0.042982787
52	0xbdfd849c	-0.12378809
53	0xbd603190	-0.054734766
54	0x3d96a4a8	0.073556244
55	0x3e776a14	0.2416156
56	0xbdfa5f70	-0.122252345
57	0x3e4e31b4	0.20136148
58	0xbe801664	-0.25017083
59	0x3e8b70d2	0.27234513
60	0x3daff722	0.08592059
61	0xbe1d20d7	-0.15344559
62	0xbe185d9a	-0.14879456
63	0xbe245c6e	-0.16050884
64	0xbe6ff288	-0.23432362
65	0xbe37c4ee	-0.17946216
66	0x3e1ab9b5	0.15109904
67	0x3e52718c	0.20551127
68	0xbe3d5b5f	-0.18491887
69	0x3e5d800f	0.21630882
70	0x3c480c54	0.0122099705
71	0xbe78151e	-0.24226806
72	0xbe28b3fb	-0.16474907
73	0x3e782826	0.24234065
74	0xbe2d487a	-0.16922179
75	0xbe84110c	-0.25794256
76	0xbdc42cf0	-0.09578884
77	0x3e8a4678	0.27006888
78	0x3d7e6aed	0.06211369
79	0x3e320c22	0.17387441
80	0x3dd5a50d	0.104318716
81	0x3dd3b500	0.103372574
82	0xbe174c09	-0.14775099
83	0x3d9f835a	0.07788725
84	0x3d0ad6ef	0.033896383
85	0xbdd7fdd9	-0.105464645
86	0x3da080df	0.0783708
87	0x3dfc3c69	0.1231621
88	0xbd8d856d	-0.069102146
89	0x3e88d722	0.26726633
90	0xbd3e0af3	-0.04639716
91	0x3d7e8778	0.06214091
92	0x3af15fbd	0.0018415373
93	0x3dda53c7	0.106605105
94	0x3d8a87ac	0.067641586
95	0xbb0f832d	-0.0021898255
96	0x3e76eccb	0.24113767
97	0x3ce60408	0.028078094
98	0x3e15c1ab	0.1462466
99	0xbe1cc406	-0.15309152
100	0xbde80ba5	-0.11330346
101	0x3d6a8683	0.057257187
102	0xbe6a687c	-0.2289142
103	0x3d8d995f	0.06914019
104	0xbdb5d840	-0.08879137
105	0xbd5046ad	-0.05084865
106	0x3e338887	0.1753255
107	0x3e3265d1	0.17421652
108	0x3c8fa090	0.017532617
109	0xbcb35870	-0.021892756
110	0x3d2c1ad0	0.042017758
111	0x3e1f58fa	0.15561286
112	0xbded5a00	-0.11589432
113	0xbd9a8c10	-0.07546246
114	0x3d33e898	0.04392299
115	0x3da61120	0.08108735
116	0xbe5f3d44	-0.21800715
117	0x3dccc95c	0.09999344
118	0xbcd22a90	-0.025655061
119	0x3e6e3fa4	0.23266464
120	0xbc9275d8	-0.017878458
121	0x3ae4030e	0.001739593
122	0xbe6b1247	-0.22956191
123	0xbe463d89	-0.19359411
124	0x3e1d30f0	0.153507
125	0xbc905c9a	-0.01762228
126	0x3e051ce0	0.12999296
127	0xbdb16be5	-0.086631574
128	0xbe5b9b59	-0.21445979
129	0xbe586e5d	-0.2113585
130	0x3d83e49b	0.064400874
131	0x3df68eac	0.12038931
132	0xbd0dd850	-0.03463012
133	0x3e64dcfc	0.22349924
134	0xbe609444	-0.21931559
135	0xbe8aefad	-0.27135983
136	0x3cc2eb80	0.023793936
137	0x3e19608e	0.14978239
138	0x3dfe23b4	0.124091536
139	0x3e7ef208	0.24897015
140	0x3cb4c9f0	0.022068948
141	0x3e8b3b6a	0.27193767
142	0xbe6fd0ad	-0.23419447
143	0xbe3f53de	-0.18684337
144	0x3e831b4e	0.2560677
145	0xbe6eaca7	-0.23308049
146	0x3d470698	0.048590273
147	0xbbde4300	-0.0067828894
148	0xbe7ae00a	-0.24499527
149	0xbe55d900	-0.2088356
150	0xbe83bdc5	-0.2573072
151	0x3c9da510	0.019243747
152	0xbe732771	-0.23745514
153	0xbdf91696	-0.12162511
154	0xbdbbe636	-0.091747686
155	0x3ce44460	0.027864635
156	0xbdab3c30	-0.08361089
157	0x3e0b4db6	0.13603863
158	0x3e00e2b3	0.12586479
159	0xbe241ebb	-0.16027348
160	0x3e2d285e	0.1690993
161	0xbd705674	-0.058676198
162	0x3b052534	0.0020316364
163	0xbd2f68c0	-0.042824507
164	0x3e751927	0.23935376
165	0x3e035944	0.12827021
166	0x3d916b4c	0.071005434
167	0xbe0346ed	-0.12820025
168	0xbe4e7200	-0.20160675
169	0xbda57d1d	-0.08080504
170	0xbd9894f8	-0.074502885
171	0x3e7be3a8	0.24598563
172	0x3e499299	0.19684829
173	0xbd1c8235	-0.038210113
174	0x3cb228f8	0.021748051
175	0xbe8953ee	-0.26821846
176	0xbd6e2557	-0.05814108
177	0xbe09772b	-0.13424365
178	0x3df371b6	0.11886923
179	0x3d20d9d9	0.039270256
180	0xbe1e1e45	-0.15441234
181	0xbd8edcb5	-0.0697569
182	0x3e64bb54	0.22337085
183	0xbdedae19	-0.11605472
184	0x3e6d97d9	0.23202457
185	0x3dd397a6	0.10331659
186	0xbe8d2aa4	-0.27571595
187	0x3dc15eae	0.09441887
188	0x3e824479	0.25442865
189	0x3e0257af	0.12728761
190	0x3e61633a	0.22010508
191	0x3d3320c0	0.043732405
192	0xbdbdbf8c	-0.0926505
193	0x3e81f79e	0.2538423
194	0xbdc5c578	-0.09656805
195	0xbe90da3d	-0.28291503
196	0x3d0e5830	0.03475207
197	0xbd91f530	-0.07126844
198	0x3e872164	0.26392663
199	0x3de422d8	0.111394584
200	0xbd26de8c	-0.04073958
201	0x3e35e056	0.17761359
202	0xbe01e35a	-0.12684384
203	0x3e2c4942	0.1682482
204	0x3e68ec5a	0.22746411
205	0x3e1405a9	0.14455284
206	0x3dc0b662	0.09409787
207	0x3d8c0056	0.068360016
208	0x3e92951e	0.28629392
209	0x3e21741e	0.15766951
210	0x3e699f7b	0.22814743
211	0xbe86787b	-0.26263794
212	0x3e23eca9	0.16008247
213	0xbdb482b3	-0.088139914
214	0x3d30471e	0.043036573
215	0x3e350bea	0.17680326
216	0x3d111e92	0.035429545
217	0xbd420cbd	-0.04737543
218	0xbe3f99bd	-0.1871099
219	0xbddd7d8b	-0.10814961
220	0x3dceb371	0.100928195
221	0x3e742711	0.23843028
222	0x3ceb0bd8	0.028692171
223	0xbc717924	-0.014738355
224	0x3e8acbae	0.2710852
225	0x3db87938	0.09007496
226	0xbe7b5762	-0.24545053
227	0xbd9f2d03	-0.07772257
228	0xbd800ba2	-0.06252219
229	0x3e3ed842	0.18637183
230	0x3e2249e9	0.15848507
231	0x3e446654	0.1917966
232	0x3de273b3	0.11057224
233	0xbe8e3d09	-0.2778094
234	0x3e88adc8	0.26695085
235	0xbd9fc01d	-0.078003146
236	0xbdc54aea	-0.09633429
237	0xbe72d14a	-0.2371265
238	0x3e5eeb6b	0.21769492
239	0xbe8b5ee8	-0.27220845
240	0xbdb79af4	-0.08965102
241	0xbe8086ed	-0.2510294
242	0xbd979106	-0.07400708
243	0xbd06c788	-0.03290513
244	0xbe04ca26	-0.12967739
245	0xbdddbd50	-0.10827124
246	0x3debde0c	0.115169615
247	0x3e20cb3e	0.1570253
248	0xbe79eeb9	-0.24407472
249	0x3d4d6360	0.0501436
250	0xbd45a384	-0.048251644
251	0x3e5ee4c0	0.21766949
252	0x3e4589c2	0.19290832
253	0x3ca0a7b0	0.01961121
254	0xbd39fcf4	-0.04540725
255	0x3e6e5978	0.23276317

fc1.bias f4 [128]
0	0xbdc4f322	-0.096166864
1	0xbe36f349	-0.17866243
2	0xbe3798a8	-0.17929327
3	0x3e5fbd54	0.21849567
4	0x3d8e2568	0.069407284
5	0x3d3e0f06	0.046401046
6	0xbe394198	-0.18091428
7	0x3dd99bef	0.10625445
8	0xbe4f4043	-0.20239358
9	0x3dade460	0.08490825
10	0x3e7dfed3	0.24804239
11	0x3e5632a8	0.20917761
12	0x3d87e1bc	0.06634852
13	0x3dbda6d1	0.09260333
14	0xbe715b95	-0.23570092
15	0x3df9cc73	0.12197199
16	0xbd972d72	-0.07381715
17	0x3de53439	0.11191601
18	0xbe77701c	-0.2416386
19	0x3e5c56f5	0.21517546
20	0xbe482a36	-0.19547352
21	0x3e511e14	0.2042163
22	0x3c83b31a	0.016076613
23	0x3e8da64b	0.27665934
24	0x3dc389af	0.095477454
25	0x3d103255	0.03520425
26	0x3e8e1dec	0.27757204
27	0x3e2eb7fe	0.17062375
28	0x3da100e3	0.07861497
29	0x3dfc3822	0.12315394
30	0x3d800690	0.06251252
31	0xbdc5d370	-0.09659469
32	0xbe06179f	-0.13094948
33	0x3e6bcb64	0.23026806
34	0x3e1c2164	0.15247113
35	0xbe7a3928	-0.24435866
36	0x3ddda6c2	0.10822822
37	0xbe584d6d	-0.21123286
38	0x3e0f8080	0.14013863
39	0x3d906c78	0.07051939
40	0x3d977a46	0.07396369
41	0x3e6ca6f6	0.23110566
42	0xbc50914f	-0.012729957
43	0x3e1dc459	0.15406932
44	0x3e329595	0.17439874
45	0x3d877f34	0.06616059
46	0xbc431af7	-0.011908284
47	0x3c5dbee6	0.013534283
48	0x3dc84b08	0.09779936
49	0x3e8daa11	0.27668813
50	0xbe6ed38c	-0.23322886
51	0xbd6d7290	-0.057970583
52	0x3e74f200	0.2392044
53	0xbe0b232a	-0.13587633
54	0xbcd28673	-0.025698876
55	0xbdded720	-0.108808756
56	0xbe0896c5	-0.13338764
57	0xbd4f7a3a	-0.050653674
58	0x3e3aafd6	0.18231139
59	0x3a2b18e9	0.0006526844
60	0xbe0f9fb7	-0.1402577
61	0xbe1248ce	-0.14285585
62	0xbe78112a	-0.24225298
63	0xbccc3783	-0.024928814
64	0xbe3da5a5	-0.1852022
65	0xbd63fde6	-0.05566206
66	0x3d424c6d	0.047436167
67	0x3e7bca00	0.24588776
68	0x3e77a82e	0.24185249
69	0x3e0172e2	0.1264148
70	0x3d6c76be	0.05773043
71	0x3e88ecf4	0.2674328
72	0xbc192b87	-0.009348757
73	0x3e8fa83f	0.2805805
74	0x3e3055fd	0.17220302
75	0xbe88f296	-0.26747578
76	0x3e50cc0c	0.20390338
77	0x3e2b0c5a	0.1670393
78	0x3e38f1bc	0.18060964
79	0xbda4e82c	-0.08052096
80	0xbe3194ec	-0.17341965
81	0x3df6df59	0.12054319
82	0xbcf267f0	-0.029590577
83	0xbe2c40fb	-0.16821663
84	0xbe842de8	-0.25816274
85	0x3e8be726	0.2732479
86	0xbe900a81	-0.28133014
87	0xbe1c0289	-0.15235342
88	0x3cd4a9be	0.025959846
89	0xbd860087	-0.06543069
90	0x3e033482	0.12812999
91	0x3d9bd37e	0.07608698
92	0x3ce91940	0.028454423
93	0x3bf50240	0.007477075
94	0xbdcf97c4	-0.10136369
95	0x3e56dcf1	0.2098272
96	0xbdee87fe	-0.11647032
97	0xbe6052c0	-0.21906567
98	0xbe72846a	-0.23683324
99	0x3db62a4c	0.08894786
100	0x3e95b13e	0.29236788
101	0x3cef7a47	0.029233111
102	0xbe3f3249	-0.18671526
103	0x3daf65dc	0.0856435
104	0xbe86d5e9	-0.26335075
105	0xbd60127a	-0.05470512
106	0x3e60abf1	0.2194059
107	0x3e556c00	0.2084198
108	0x3ce457f0	0.027873963
109	0x3d88955a	0.066691115
110	0x3d5c29fb	0.053750973
111	0x3e8ed994	0.27900374
112	0x3bac999d	0.0052673356
113	0xbe83604b	-0.25659403
114	0xbe278fab	-0.16363399
115	0xbd393d84	-0.04522468
116	0x3dd05371	0.10172165
117	0x3df853b8	0.12125343
118	0xbb956b0c	-0.00455988
119	0xbdefae1e	-0.11703132
120	0x3e3cf204	0.18451697
121	0xbda1bccc	-0.07897338
122	0xbe1399f1	-0.14414193
123	0x3e0071bb	0.12543385
124	0xbdf70368	-0.120611966
125	0x3e472141	0.19446279
126	0xbd1710cf	-0.036881264
127	0xbdc7a670	-0.09748542

fc2.weight f4 [1, 128]
0	0x3cf45138	0.029823884
1	0x3d25176a	0.040305533
2	0xbbda9283	-0.0066702976
3	0xbcd46570	-0.025927275
4	0x3d989bd7	0.07451599
5	0x3c45885d	0.012056437
6	0x3c9c8811	0.01910785
7	0x3d59b528	0.05315128
8	0xbd85257f	-0.065012924
9	0x3c9cd784	0.019145735
10	0x3d263fa5	0.04058804
11	0x3da693b5	0.08133642
12	0xbc94d0b0	-0.018165916
13	0x3d978a53	0.0739943
14	0x3d849c00	0.06475067
15	0xbd0219ee	-0.03176301
16	0x3ca4568c	0.0200608
17	0xbd83c7d0	-0.064345956
18	0xbc22d58f	-0.009938612
19	0xbd202535	-0.039097983
20	0xbd72ad16	-0.0592471
21	0x3d92d75b	0.07169982
22	0x3c103f29	0.008804121
23	0xbc58eb7f	-0.01323974
24	0xbd05b3a8	-0.032642037
25	0xbd86a4cd	-0.06574402
26	0x3d0fd4e0	0.035115123
27	0x3b3613a0	0.0027782694
28	0xbda1aa28	-0.07893783
29	0xbd738e3c	-0.059461817
30	0x3d7a7996	0.06115111
31	0xbc3c5383	-0.01149452
32	0x3cc55c74	0.024091937
33	0xbd8f7bac	-0.070060104
34	0xbd4398d4	-0.04775317
35	0x3ced2a4e	0.028950837
36	0xbd1723f9	-0.03689954
37	0x3cf06c4c	0.029348515
38	0x3da96742	0.08271648
39	0x3d7499ce	0.059716992
40	0xbcf291cc	-0.029610537
41	0xbd19ed52	-0.037579842
42	0xbd7a42a7	-0.06109872
43	0x3d198a52	0.03748543
44	0xbbcff5b3	-0.0063464283
45	0x3bd8623f	0.0066035087
46	0xbd47d560	-0.048787475
47	0xb9e85726	-0.0004431542
48	0xbd12d67b	-0.035849076
49	0x3c86b890	0.016445428
50	0xbd3d5598	-0.046224207
51	0xbd3a9924	-0.045556203
52	0x3da727e0	0.081619024
53	0x3a8f0abb	0.0010913232
54	0xbc600dd5	-0.013675173
55	0x3db7a07e	0.08966158
56	0xbd46f87d	-0.04857682
57	0xbc837b14	-0.0160499
58	0xbbd5e480	-0.0065274835
59	0xbd8a3d27	-0.06749945
60	0xbd894168	-0.067019284
61	0x3d3e5969	0.046471987
62	0xbd287392	-0.04112584
63	0x3d739920	0.059472203
64	0xba9ca640	-0.0011951402
65	0xbd9d3326	-0.076757714
66	0xbd7ed68b	-0.062216323
67	0x3db9360a	0.0904351
68	0xbcc02cbc	-0.023458831
69	0xbdbbf557	-0.09177654
70	0xbcc82036	-0.024429422
71	0xbc2ff1c8	-0.0107387975
72	0x3db383c8	0.0876537
73	0x3db6e22f	0.0892986
74	0x3db98add	0.09059689
75	0xbd39108a	-0.04518179
76	0x3cc72494	0.024309434
77	0xbd942cd5	-0.072351135
78	0xbd8fed5b	-0.07027694
79	0x3d9d860d	0.07691584
80	0x3c1b08be	0.0094625335
81	0x3d5d4fbc	0.05403112
82	0x3c74b448	0.0149355605
83	0xbc1db77e	-0.0096262675
84	0x3d9be56d	0.07612119
85	0x3ce0300b	0.027366659
86	0x3bfd104d	0.0077228905
87	0x3d212650	0.03934318
88	0xbd147468	-0.036243826
89	0x3bfde7e5	0.0077485912
90	0x3d09b244	0.033617273
91	0xbd84ca88	-0.06483942
92	0xbd6f49d8	-0.058420032
93	0xbd79d9f9	-0.06099889
94	0x3ccb406f	0.024810998
95	0xbda2a271	-0.079411395
96	0x3d9d829b	0.07690927
97	0xba6f9500	-0.0009139329
98	0xbd5e9785	-0.05434372
99	0x3dc06c74	0.09395686
100	0x3d2a5ca7	0.041592266
101	0xbd1bb5e7	-0.038015272
102	0xbd64e31c	-0.05588065
103	0x3d8e1553	0.06937661
104	0xbda58f3f	-0.08083963
105	0x3c4fb519	0.012677454
106	0xbd808f65	-0.0627735
107	0x3ccbbbd0	0.02486983
108	0xbda147f0	-0.07875049
109	0x3d6d68cd	0.057961274
110	0x3c695490	0.014241353
111	0x3d821bb7	0.063529424
112	0x3c775d2c	0.0150978975
113	0x3d0fe940	0.035134554
114	0xbd0a1b55	-0.033717472
115	0xbc89237f	-0.016740559
116	0x3d11d5a9	0.035604153
117	0xbce848c8	-0.028355017
118	0xbd88e072	-0.066834345
119	0x3d6d41ca	0.05792407
120	0x3d48d23a	0.049028613
121	0x3d2a0692	0.041510172
122	0x3ca5fcd0	0.020262152
123	0xbc64517e	-0.013935445
124	0xbda0373a	-0.07823034
125	0xbd4afcf5	-0.049557645
126	0x3c702c17	0.014658949
127	0x3cd668b4	0.026172973
