model_BCSLoss.ckpt (torch_old, 7986 bytes, 3 tensors)

fc1.weight f4 [128, 12]
0	0xbe13e531	-0.14442898
1	0x3ceb9dcc	0.028761767
2	0x3e430934	0.1904648
3	0xbe77561a	-0.24153939
4	0x3e66aee2	0.2252765
5	0xbe17f3be	-0.14839074
6	0x3aa3eee8	0.0012507113
7	0xbe5b5d14	-0.21422225
8	0xbe81e7ed	-0.25372258
9	0xbe0096cc	-0.12557524
10	0x3d317731	0.04332656
11	0xbdaa4bcb	-0.083152376
12	0x3da95190	0.0826751
13	0xbd415c80	-0.047207355
14	0xbdd9a6be	-0.10627507
15	0x3e2cc5f2	0.16872385
16	0xbd841a78	-0.06450361
17	0xbdb3aa48	-0.08772713
18	0xbe0820b1	-0.13293721
19	0xbe82c12a	-0.25537997
20	0xbe868cd7	-0.26279327
21	0x3e3c362e	0.18380043
22	0xbe72db60	-0.23716497
23	0x3b0b3980	0.002124399
24	0xbe8fbe83	-0.28075036
25	0xbe83bd0d	-0.25730172
26	0x3df20d34	0.118189245
27	0x3ca5af10	0.020225078
28	0xbe5e021c	-0.21680492
29	0xbe436f8f	-0.19085525
30	0xbce00e90	-0.027350694
31	0x3d9c69bc	0.07637355
32	0xbd89ee78	-0.067349374
33	0x3e215bb8	0.15757644
34	0x3dcacad0	0.09901965
35	0x3e8cb9c4	0.27485478
36	0xbe5cbeec	-0.21557206
37	0x3c948c41	0.018133285
38	0xbcf899cd	-0.030346775
39	0xbe382a1e	-0.17984816
40	0x3e8b0635	0.27153173
41	0xbd26280f	-0.040565547
42	0x3dc110da	0.09427042
43	0xbe971841	-0.29510692
44	0xbe1645c3	-0.1467505
45	0xbe6bf066	-0.23040923
46	0x3d222798	0.03958854
47	0x3e227558	0.15865076
48	0x3b55821d	0.0032578774
49	0x3e307c2a	0.17234865
50	0x3e7e8271	0.24854447
51	0x3e023233	0.12714462
52	0x3e3eb630	0.18624187
53	0xbe1a6d39	-0.15080728
54	0x3ddfa57e	0.10920237
55	0x3d68b874	0.056816533
56	0xbd5675e4	-0.052358523
57	0x3e8d9470	0.2765231
58	0xbdea85f4	-0.11451331
59	0x3e0f731d	0.14008756
60	0x3e29ea35	0.16593249
61	0xbe851024	-0.25988877
62	0x3e0dc16b	0.13843314
63	0x3e05f1a6	0.13080463
64	0x3e82c64f	0.25541922
65	0x3deb3682	0.11485006
66	0xbd0adba8	-0.033900887
67	0xbe374f56	-0.17901358
68	0xbd808001	-0.06274415
69	0xbccb215d	-0.024796182
70	0xbdd5be9e	-0.10436748
71	0xbe72377f	-0.23653983
72	0x3d735750	0.05940944
73	0x3d22a760	0.039710402
74	0xbd0461d0	-0.032319844
75	0x3e62d3f4	0.22151166
76	0xbe774234	-0.24146348
77	0xbd97df1c	-0.074156016
78	0xbc8c9e00	-0.017165184
79	0xbe17931b	-0.1480221
80	0x3b7b8200	0.0038377047
81	0xbd299150	-0.041398346
82	0x3e768670	0.24074721
83	0x3cbf7fc0	0.023376346
84	0xbe84a3c7	-0.25906202
85	0xbe909db0	-0.28245306
86	0xbd6f2095	-0.058380682
87	0xbd2bf791	-0.041984145
88	0x3d8d6686	0.069043204
89	0xbe578e4d	-0.21050377
90	0xbe155e6c	-0.145868
91	0x3d034822	0.032051213
92	0x3c4ed622	0.012624295
93	0x3e346d3f	0.17619799
94	0x3c9933de	0.01870149
95	0xbd8f5548	-0.06998688
96	0x3e6e124c	0.23249167
97	0xbbbe0100	-0.005798459
98	0x3e1ec922	0.15506414
99	0xbe053aee	-0.13010761
100	0xbc1b5640	-0.009481013
101	0xbd3b6334	-0.045748904
102	0xbe7cd4d8	-0.24690568
103	0xbe8a3c71	-0.26999238
104	0xbc0732c0	-0.008251846
105	0x3df58cec	0.11989769
106	0x3c97ccc0	0.01853025
107	0xbe84f3a9	-0.25967148
108	0x3c88dd40	0.016707063
109	0x3ddc7f24	0.10766438
110	0x3dc3e2fc	0.09564778
111	0x3e4a12e8	0.19733775
112	0xbe3f3c56	-0.1867536
113	0x3e4f2a06	0.20230874
114	0xbe1c5b78	-0.15269268
115	0xbe649bc0	-0.22325039
116	0x3e55f026	0.2089239
117	0x3e4675b8	0.19380844
118	0x3e8c4aa0	0.27400684
119	0xbde5780e	-0.11204539
120	0x3e2e75fc	0.17037195
121	0xbcb7b88b	-0.022426864
122	0xbe05253b	-0.13002484
123	0x3de67eb3	0.11254635
124	0xbe41695c	-0.18887848
125	0xbe3292de	-0.17438838
126	0x3e885cc4	0.26633275
127	0x3e75fdb4	0.24022561
128	0xbdf3449b	-0.1187832
129	0x3e5f58c4	0.21811205
130	0xbe287260	-0.1644988
131	0x3c0b68cf	0.008508875
132	0xbe475305	-0.19465263
133	0xbdf2951f	-0.11844849
134	0xbe49da09	-0.1971208
135	0x3e94f1f6	0.29090852
136	0x3e3d9f86	0.18517885
137	0xbe76d084	-0.2410298
138	0x3e8769b9	0.26447847
139	0xbe2fc22e	-0.17163917
140	0xbe555986	-0.20834932
141	0x3c879107	0.016548647
142	0xbc2a2e03	-0.010386947
143	0xbd932a21	-0.0718577
144	0x3c81e93f	0.01585829
145	0x3e4fe846	0.20303449
146	0x3e113ab3	0.14182548
147	0xbe5458f6	-0.20737061
148	0xbe3d507d	-0.18487735
149	0xbe873c94	-0.26413405
150	0xbe23e0a6	-0.16003665
151	0x3e3eeff8	0.18646228
152	0xbe3ca332	-0.18421629
153	0xbdc18736	-0.094496176
154	0x3e6583ea	0.22413602
155	0xbd865b40	-0.06560373
156	0xbd5c55fa	-0.05379293
157	0x3e05b85f	0.13058613
158	0xbe89934e	-0.26870197
159	0xbe248f3e	-0.16070268
160	0x3db62b4e	0.088949785
161	0xbd1a876f	-0.037726816
162	0x3d80b926	0.06285314
163	0xbd3473ab	-0.044055622
164	0xbe806009	-0.2507327
165	0xbe81f2d6	-0.25380582
166	0xbe81ef9f	-0.2537813
167	0xbd82434a	-0.063604906
168	0xbd02c1d2	-0.031923123
169	0xbc8d9180	-0.017281294
170	0xbe08b69f	-0.13350914
171	0xbe2ac226	-0.16675624
172	0x3e81ab01	0.25325778
173	0x3c26185f	0.010137646
174	0x3e22068d	0.15822811
175	0x3db2e7da	0.087356284
176	0xbd678b83	-0.056529533
177	0xbd187202	-0.0372181
178	0xbe15622f	-0.14588235
179	0x3e7ff39e	0.24995276
180	0x3e7f17f9	0.24911489
181	0xbe06210a	-0.13098541
182	0xbdb66b25	-0.08907155
183	0x3d20d444	0.039264932
184	0x3d965514	0.07340446
185	0xbe97afbc	-0.29626262
186	0x3e3cea74	0.18448812
187	0x3de9bc63	0.11412885
188	0xbe83d48a	-0.25748092
189	0x3e5f5fa3	0.21813826
190	0x3bc95c83	0.0061450615
191	0xbe8fe148	-0.28101563
192	0xbd3e3e6f	-0.04644626
193	0x3e20ccf9	0.15703191
194	0xbe734b71	-0.23759247
195	0xbe71e688	-0.23623097
196	0x3dff46e1	0.12464691
197	0xbe30917c	-0.17242998
198	0xbcdc2892	-0.026874814
199	0xbe03a8f1	-0.12857415
200	0x3e138d82	0.1440945
201	0x3caa320a	0.020775814
202	0xbc9b76a3	-0.018977469
203	0xbd642fef	-0.055709776
204	0xbe45bbef	-0.19309972
205	0x3e7b928c	0.24567622
206	0xbccde880	-0.025135279
207	0xbe636194	-0.22205192
208	0xbcc7c690	-0.024386674
209	0xbc32c580	-0.0109113455
210	0x3e5e7f50	0.21728253
211	0xbe931438	-0.28726363
212	0xbe80867a	-0.25102597
213	0x3c0d7780	0.008634448
214	0x3e1f3d60	0.15550756
215	0xbe193f7b	-0.14965622
216	0xbe4ccb47	-0.19999419
217	0x3e1f0606	0.15529642
218	0x3c85608b	0.016281387
219	0x3e2abc8e	0.1667349
220	0x3e2f021d	0.1709065
221	0xbe346d68	-0.1761986
222	0xbe55845e	-0.20851275
223	0x3e593ad3	0.21213846
224	0xbca542de	-0.020173486
225	0xbd47b3ab	-0.04875533
226	0x3e88d982	0.26728445
227	0x3e6b1860	0.22958517
228	0xbe1e7164	-0.15472943
229	0x3cfca0c0	0.03083837
230	0x3e6016dc	0.2188372
231	0x3cbff2a0	0.023431122
232	0xbe89a5f1	-0.26884416
233	0x3c95c810	0.018283874
234	0xbe327e12	-0.17430905
235	0x3df457f0	0.11930835
236	0xbe4845b4	-0.1955784
237	0x3d0b54c8	0.0340164
238	0x3e27cfc0	0.16387844
239	0x3cd27f60	0.025695503
240	0xbe4e5c82	-0.20152476
241	0xbe8cf7fa	-0.2753294
242	0xbe74c4e3	-0.23903231
243	0xbe8976df	-0.26848504
244	0xbdc55cb2	-0.09636821
245	0x3ca03d20	0.019560397
246	0xbe060f1b	-0.130917
247	0xbe0aa04e	-0.13537714
248	0x3d19c3b8	0.037540168
249	0x3e671ca8	0.22569525
250	0x3d94bb68	0.072623074
251	0xbe656069	-0.22400059
252	0x3e95b510	0.29239702
253	0x3e1e407d	0.15454288
254	0x3e13ff51	0.14452864
255	0xbe51c951	-0.20486952

fc1.bias f4 [128]
0	0xbdd30888	-0.103043616
1	0xbe6b34ec	-0.22969407
2	0x3dc30670	0.09522712
3	0xbd6a447a	-0.05719421
4	0xbe659465	-0.2241989
5	0x3de18f9c	0.110137194
6	0x3e71af58	0.23602045
7	0xbe563a75	-0.20920737
8	0xbe1b69d4	-0.15177089
9	0xbe609942	-0.21933463
10	0xbd3b3c2e	-0.04571169
11	0xbdcbeede	-0.0995767
12	0xbc9c7100	-0.019096851
13	0xbd52c3df	-0.05145633
14	0x3da47212	0.0802957
15	0x3e8c9112	0.2745443
16	0x3e238429	0.15968384
17	0xbda0cd20	-0.078516245
18	0x3cb1bafa	0.021695603
19	0x3e4f0a0e	0.2021868
20	0x3e420dc0	0.18950558
21	0xbe02587d	-0.12729068
22	0x3d911e94	0.070859104
23	0xbe1a3550	-0.150594
24	0xbe17351a	-0.1476635
25	0x3d819850	0.063278794
26	0xbdd41596	-0.1035568
27	0xbd5e012c	-0.054200336
28	0x3e70e56e	0.2352502
29	0x3e8ce1be	0.27515978
30	0xbe0f6c74	-0.14006215
31	0xbe76072c	-0.24026173
32	0xbdbf3311	-0.09335912
33	0x3d8ef330	0.06979978
34	0x3e78f9d7	0.24314056
35	0x3dda1878	0.10649198
36	0x3e46cda0	0.19414377
37	0xbe525eb0	-0.20543933
38	0x3dfb39ea	0.122669056
39	0x3e13006a	0.14355627
40	0xbe2c65fc	-0.16835779
41	0xbde0926b	-0.10965427
42	0x3dfe9da3	0.124324106
43	0xbe6545b3	-0.2238987
44	0xbe79f0e9	-0.24408306
45	0xbe143b3b	-0.1447572
46	0xbdba005d	-0.090821005
47	0x3e0e5217	0.13898502
48	0xbe70343b	-0.23457424
49	0x3e0310e5	0.12799414
50	0x3e3179a5	0.1733156
51	0xbe251fac	-0.16125363
52	0xbe643679	-0.22286405
53	0xbe370f63	-0.17876963
54	0x3d8c86fa	0.06861682
55	0xbe72cada	-0.23710194
56	0x3e681598	0.22664487
57	0x3d0b72d3	0.03404505
58	0x3c8ceb70	0.01720211
59	0x3e915101	0.28382114
60	0xbe603655	-0.21895726
61	0xbdaba549	-0.08381135
62	0x3e4b47de	0.19851634
63	0x3e11ad06	0.1422616
64	0xbe2c4e33	-0.16826706
65	0x3e0ec059	0.13940562
66	0x3da0fe78	0.07861036
67	0xbe261682	-0.16219524
68	0xbd8cb346	-0.06870131
69	0xbd858736	-0.0651993
70	0xbe7443f5	-0.23854049
71	0x3e01e4ec	0.12684983
72	0x3e0851a6	0.13312396
73	0xbe844c98	-0.25839686
74	0xbe5fa356	-0.21839651
75	0x3d619b13	0.05507953
76	0xbd8a66b9	-0.06757874
77	0x3da0baf2	0.07848157
78	0x3e82b3d5	0.25527826
79	0xbe84e8d5	-0.25958887
80	0x3e2b5325	0.16730936
81	0x3d8fdde3	0.070247434
82	0x3d0b14c8	0.033955365
83	0xbd1d6b50	-0.03843242
84	0x3dec9378	0.11551565
85	0x3d9aabad	0.07552276
86	0x3dbf027e	0.09326647
87	0xbdc3a6af	-0.09553277
88	0x3d616da9	0.05503622
89	0x3e3120ea	0.17297712
90	0xbda8cb13	-0.08241858
91	0xbb079757	-0.002068957
92	0x3e875f0a	0.26439697
93	0x3e2f3990	0.17111802
94	0xbe96d64d	-0.29460374
95	0xbd40347a	-0.046925046
96	0x3d787560	0.060658813
97	0xbe65a045	-0.22424419
98	0xbe08636c	-0.13319176
99	0xbe2590ed	-0.16168566
100	0xbe0cc929	-0.13748612
101	0xbb903846	-0.0044012396
102	0x3d0dbf8a	0.034606494
103	0x3e83932e	0.25698227
104	0x3e5c6eb9	0.21526612
105	0x3e5a4793	0.21316366
106	0x3e8cfae8	0.27535176
107	0xbe571373	-0.21003513
108	0x3e91a664	0.28447258
109	0x3e8ebf76	0.27880448
110	0xbdea8277	-0.114506654
111	0xbe59fa51	-0.21286894
112	0xbe08ee31	-0.13372113
113	0xbe49e7e1	-0.19717361
114	0xbd82e974	-0.06392184
115	0x3e1c91b0	0.1528995
116	0x3e749a4b	0.23886983
117	0x3d422d50	0.047406495
118	0xbe463f02	-0.19359973
119	0x3e345238	0.17609489
120	0xbe6fcf5a	-0.23418942
121	0x3d9a1304	0.07523158
122	0x3d09bcc6	0.033627294
123	0x3e434a2c	0.19071263
124	0x3e93fd80	0.28904343
125	0x3c875bce	0.016523268
126	0xbe05e02b	-0.13073795
127	0xbe80d41a	-0.2516182

fc2.weight f4 [1, 128]
0	0xbda7d4ca	-0.08194883
1	0x3da496c9	0.080365725
2	0x3d7efe52	0.062254258
3	0x3d964428	0.073372185
4	0x3d78f576	0.060780965
5	0x3d77042e	0.06030672
6	0x3d0dbaca	0.034601964
7	0xbbb57a81	-0.0055382852
8	0xbbb9ff40	-0.00567618
9	0xbdb268f7	-0.08711427
10	0xbdc0ddc6	-0.094173
11	0xbdb3b186	-0.08774094
12	0xbdc07c51	-0.093987115
13	0xbd4f7931	-0.050652687
14	0x3c94cf21	0.018165173
15	0x3c2c79f1	0.01052712
16	0x3cc93563	0.02456159
17	0x3d651ca2	0.05593551
18	0x3d98a9c2	0.07454254
19	0x3d8ea465	0.069649495
20	0xbd68cc35	-0.056835372
21	0xbd5abbb8	-0.05340168
22	0xbdbad991	-0.09123529
23	0xbdc6528b	-0.096837126
24	0x3b6ae4ac	0.0035841865
25	0xbd2927f5	-0.04129787
26	0xbc967d94	-0.018370427
27	0xbd73c4fe	-0.05951404
28	0xbdae34f1	-0.085061915
29	0x3d7a4c16	0.061107717
30	0xbce40438	-0.027834043
31	0x3cc8d163	0.024513906
32	0xbdacb21d	-0.0843241
33	0xbd380dc0	-0.044934988
34	0x3c604441	0.013688148
35	0x3c010bf0	0.007876381
36	0xbd3b7400	-0.045764923
37	0x3d51eeb1	0.051253024
38	0xbdc1d055	-0.09463564
39	0xbccf3918	-0.02529578
40	0x3c62868e	0.013826026
41	0xbdb0b695	-0.08628575
42	0xbcad81d7	-0.021180077
43	0xbac5074c	-0.0015032082
44	0xbd80fc3c	-0.0629811
45	0x3c9a028e	0.018800046
46	0xbc30d8e5	-0.010793899
47	0x3c60f80f	0.013731017
48	0x3d889801	0.066696174
49	0x3d546ad8	0.051859707
50	0x3d691f9f	0.05691492
51	0x3d8538f3	0.06505003
52	0x3d8d1153	0.0688807
53	0x3d134158	0.03595099
54	0xbd796eee	-0.060896806
55	0x3d3f819e	0.046754472
56	0xbce88ce5	-0.028387496
57	0xbd37c5f7	-0.04486653
58	0xbd013dd0	-0.03155309
59	0xbd96dd32	-0.073664084
60	0xbda9f0ec	-0.08297905
61	0xbd7337d5	-0.059379417
62	0xbcf8b2d3	-0.030358708
63	0xbcd600bc	-0.026123397
64	0x3bafe3e4	0.005367743
65	0xbdaee191	-0.08539117
66	0x3d16d831	0.03682727
67	0xbd5298ff	-0.05141544
68	0x3d2519ae	0.040307693
69	0xbd2f9193	-0.04286344
70	0x3d6ef503	0.05833913
71	0xbd36a309	-0.044589076
72	0x3d753933	0.059869003
73	0xbdbbe680	-0.09174824
74	0xbd140cc5	-0.03614499
75	0xbd08056a	-0.03320829
76	0xbd514de3	-0.05109967
77	0xbd479ffe	-0.048736565
78	0x3bea73c8	0.0071549155
79	0xbda1f9b3	-0.079089545
80	0xbd86b848	-0.065781176
81	0xbb5a7aee	-0.0033337432
82	0x3c846380	0.016160727
83	0x3cc39f40	0.023879647
84	0xbcfcd400	-0.030862808
85	0xbdbe33c8	-0.0928722
86	0xbc820ede	-0.01587623
87	0x3d96114c	0.07327518
88	0x3d114036	0.035461627
89	0x3d98734b	0.074438654
90	0xbd8ee02d	-0.06976352
91	0xbd6cd6ac	-0.057821915
92	0xbcc6e574	-0.024279334
93	0xbd106c70	-0.035259664
94	0x3d54faa8	0.051996857
95	0x3d17c1ac	0.037049934
96	0x3c612fd8	0.013744317
97	0xbcaa0f88	-0.020759359
98	0xbcc0225a	-0.02345388
99	0x3d2ac675	0.04169317
100	0xbc7314b6	-0.014836481
101	0x3d972108	0.07379347
102	0x3d2175af	0.039418872
103	0x3da05101	0.0782795
104	0x3b2f19df	0.0026718301
105	0xbd9a462e	-0.07532917
106	0x3d28abce	0.04117947
107	0xbb1e5720	-0.0024160817
108	0xbc2c53b0	-0.0105179995
109	0xbdb41626	-0.08793287
110	0xbb3a0e8b	-0.0028390016
111	0xbd4b165f	-0.04958188
112	0x3d117d58	0.035519928
113	0xbd2f6f31	-0.04283065
114	0xbd764edf	-0.06013381
115	0x3dae4de7	0.085109524
116	0xbceef8e2	-0.029171411
117	0xbd984db5	-0.074366964
118	0x3d0625d2	0.032750912
119	0xbd5dcb51	-0.054148976
120	0x3d8a0b5a	0.067404464
121	0x3d4c9ab6	0.04995223
122	0xbd6548e7	-0.05597773
123	0xbd8c96b2	-0.0686468
124	0xbdbfc2fe	-0.09363364
125	0x3d9e8d69	0.077418156
126	0x3c96949c	0.01838141
127	0x3d212848	0.039345056
